…
    "It's time to check your model's parameters with the `.summary()` method. This will display the types of layers you have, the shape of the outputs, and how many parameters are in each layer. "
   ]
  },
  {
   "cell_type": "code",
   "execution_count": 14,
   "metadata": {},
   "outputs": [
    {
     "name": "stdout",
     "output_type": "stream",
     "text": [
      "Model: \"sequential\"\n",
      "_________________________________________________________________\n",
      "Layer (type)                 Output Shape              Param #   \n",
      "=================================================================\n",
      "zero_padding2d (ZeroPadding2 (None, 70, 70, 3)         0         \n",
      "_________________________________________________________________\n",
      "conv2d (Conv2D)              (None, 64, 64, 32)        4736      \n",
      "_________________________________________________________________\n",
      "batch_normalization (BatchNo (None, 64, 64, 32)        128       \n",
      "_________________________________________________________________\n",
      "re_lu (ReLU)                 (None, 64, 64, 32)        0         \n",
      "_________________________________________________________________\n",
      "max_pooling2d (MaxPooling2D) (None, 32, 32, 32)        0         \n",
      "_________________________________________________________________\n",
      "flatten (Flatten)            (None, 32768)             0         \n",
      "_________________________________________________________________\n",
      "dense (Dense)                (None, 1)                 32769     \n",
      "=================================================================\n",
      "Total params: 37,633\n",
      "Trainable params: 37,569\n",
      "Non-trainable params: 64\n",
      "_________________________________________________________________\n"
     ]
    }
   ],
   "source": [
    "happy_model.summary()"
   ]
  },
  {
   "cell_type": "markdown",
   "metadata": {},
   "source": [
…
     "solution": false,
     "task": false
    }
   },
   "outputs": [
    {
     "name": "stdout",
     "output_type": "stream",
     "text": [
      "Model: \"functional_5\"\n",
      "_________________________________________________________________\n",
      "Layer (type)                 Output Shape              Param #   \n",
      "=================================================================\n",
      "input_11 (InputLayer)        [(None, 64, 64, 3)]       0         \n",
      "_________________________________________________________________\n",
      "conv2d_17 (Conv2D)           (None, 64, 64, 8)         392       \n",
      "_________________________________________________________________\n",
      "re_lu_17 (ReLU)              (None, 64, 64, 8)         0         \n",
      "_________________________________________________________________\n",
      "max_pooling2d_16 (MaxPooling (None, 8, 8, 8)           0         \n",
      "_________________________________________________________________\n",
      "conv2d_18 (Conv2D)           (None, 8, 8, 16)          528       \n",
      "_________________________________________________________________\n",
      "re_lu_18 (ReLU)              (None, 8, 8, 16)          0         \n",
      "_________________________________________________________________\n",
      "max_pooling2d_17 (MaxPooling (None, 2, 2, 16)          0         \n",
      "_________________________________________________________________\n",
      "flatten_7 (Flatten)          (None, 64)                0         \n",
      "_________________________________________________________________\n",
      "dense_6 (Dense)              (None, 6)                 390       \n",
      "=================================================================\n",
      "Total params: 1,310\n",
      "Trainable params: 1,310\n",
      "Non-trainable params: 0\n",
      "_________________________________________________________________\n",
      "\u001b[32mAll tests passed!\u001b[0m\n"
     ]
    }
   ],
   "source": [
    "conv_model = convolutional_model((64, 64, 3))\n",
…
