…
      "Model: \"functional_9\"\n",
      "__________________________________________________________________________________________________\n",
      "Layer (type)                    Output Shape         Param #     Connected to                     \n",
      "==================================================================================================\n",
      "input_10 (InputLayer)           [(None, 96, 128, 3)] 0                                            \n",
      "__________________________________________________________________________________________________\n",
      "conv2d_47 (Conv2D)              (None, 96, 128, 32)  896         input_10[0][0]                   \n",
      "__________________________________________________________________________________________________\n",
      "conv2d_48 (Conv2D)              (None, 96, 128, 32)  9248        conv2d_47[0][0]                  \n",
      "__________________________________________________________________________________________________\n",
      "max_pooling2d_14 (MaxPooling2D) (None, 48, 64, 32)   0           conv2d_48[0][0]                  \n",
      "__________________________________________________________________________________________________\n",
      "conv2d_49 (Conv2D)              (None, 48, 64, 64)   18496       max_pooling2d_14[0][0]           \n",
      "__________________________________________________________________________________________________\n",
      "conv2d_50 (Conv2D)              (None, 48, 64, 64)   36928       conv2d_49[0][0]                  \n",
      "__________________________________________________________________________________________________\n",
      "max_pooling2d_15 (MaxPooling2D) (None, 24, 32, 64)   0           conv2d_50[0][0]                  \n",
      "__________________________________________________________________________________________________\n",
      "conv2d_51 (Conv2D)              (None, 24, 32, 128)  73856       max_pooling2d_15[0][0]           \n",
      "__________________________________________________________________________________________________\n",
      "conv2d_52 (Conv2D)              (None, 24, 32, 128)  147584      conv2d_51[0][0]                  \n",
      "__________________________________________________________________________________________________\n",
      "max_pooling2d_16 (MaxPooling2D) (None, 12, 16, 128)  0           conv2d_52[0][0]                  \n",
      "__________________________________________________________________________________________________\n",
      "conv2d_53 (Conv2D)              (None, 12, 16, 256)  295168      max_pooling2d_16[0][0]           \n",
      "__________________________________________________________________________________________________\n",
      "conv2d_54 (Conv2D)              (None, 12, 16, 256)  590080      conv2d_53[0][0]                  \n",
      "__________________________________________________________________________________________________\n",
      "dropout_5 (Dropout)             (None, 12, 16, 256)  0           conv2d_54[0][0]                  \n",
      "__________________________________________________________________________________________________\n",
      "max_pooling2d_17 (MaxPooling2D) (None, 6, 8, 256)    0           dropout_5[0][0]                  \n",
      "__________________________________________________________________________________________________\n",
      "conv2d_55 (Conv2D)              (None, 6, 8, 512)    1180160     max_pooling2d_17[0][0]           \n",
      "__________________________________________________________________________________________________\n",
      "conv2d_56 (Conv2D)              (None, 6, 8, 512)    2359808     conv2d_55[0][0]                  \n",
      "__________________________________________________________________________________________________\n",
      "dropout_6 (Dropout)             (None, 6, 8, 512)    0           conv2d_56[0][0]                  \n",
      "__________________________________________________________________________________________________\n",
      "conv2d_transpose_7 (Conv2DTrans (None, 12, 16, 256)  1179904     dropout_6[0][0]                  \n",
      "__________________________________________________________________________________________________\n",
      "concatenate_6 (Concatenate)     (None, 12, 16, 512)  0           conv2d_transpose_7[0][0]         \n",
      "                                                                 dropout_5[0][0]                  \n",
      "__________________________________________________________________________________________________\n",
      "conv2d_57 (Conv2D)              (None, 12, 16, 256)  1179904     concatenate_6[0][0]              \n",
      "__________________________________________________________________________________________________\n",
      "conv2d_58 (Conv2D)              (None, 12, 16, 256)  590080      conv2d_57[0][0]                  \n",
      "__________________________________________________________________________________________________\n",
      "conv2d_transpose_8 (Conv2DTrans (None, 24, 32, 128)  295040      conv2d_58[0][0]                  \n",
      "__________________________________________________________________________________________________\n",
      "concatenate_7 (Concatenate)     (None, 24, 32, 256)  0           conv2d_transpose_8[0][0]         \n",
      "                                                                 conv2d_52[0][0]                  \n",
      "__________________________________________________________________________________________________\n",
      "conv2d_59 (Conv2D)              (None, 24, 32, 128)  295040      concatenate_7[0][0]              \n",
      "__________________________________________________________________________________________________\n",
      "conv2d_60 (Conv2D)              (None, 24, 32, 128)  147584      conv2d_59[0][0]                  \n",
      "__________________________________________________________________________________________________\n",
      "conv2d_transpose_9 (Conv2DTrans (None, 48, 64, 64)   73792       conv2d_60[0][0]                  \n",
      "__________________________________________________________________________________________________\n",
      "concatenate_8 (Concatenate)     (None, 48, 64, 128)  0           conv2d_transpose_9[0][0]         \n",
      "                                                                 conv2d_50[0][0]                  \n",
      "__________________________________________________________________________________________________\n",
      "conv2d_61 (Conv2D)              (None, 48, 64, 64)   73792       concatenate_8[0][0]              \n",
      "__________________________________________________________________________________________________\n",
      "conv2d_62 (Conv2D)              (None, 48, 64, 64)   36928       conv2d_61[0][0]                  \n",
      "__________________________________________________________________________________________________\n",
      "conv2d_transpose_10 (Conv2DTran (None, 96, 128, 32)  18464       conv2d_62[0][0]                  \n",
      "__________________________________________________________________________________________________\n",
      "concatenate_9 (Concatenate)     (None, 96, 128, 64)  0           conv2d_transpose_10[0][0]        \n",
      "                                                                 conv2d_48[0][0]                  \n",
      "__________________________________________________________________________________________________\n",
      "conv2d_63 (Conv2D)              (None, 96, 128, 32)  18464       concatenate_9[0][0]              \n",
      "__________________________________________________________________________________________________\n",
      "conv2d_64 (Conv2D)              (None, 96, 128, 32)  9248        conv2d_63[0][0]                  \n",
      "__________________________________________________________________________________________________\n",
      "conv2d_65 (Conv2D)              (None, 96, 128, 32)  9248        conv2d_64[0][0]                  \n",
      "__________________________________________________________________________________________________\n",
      "conv2d_66 (Conv2D)              (None, 96, 128, 23)  759         conv2d_65[0][0]                  \n",
      "==================================================================================================\n",
      "Total params: 8,640,471\n",
      "Trainable params: 8,640,471\n",
      "Non-trainable params: 0\n",
      "__________________________________________________________________________________________________\n"
     ]
    }
   ],
   "source": [
…
